net.pkl (torch_old, 6706 bytes, 3 tensors)

weight f4 [10, 1]
0.41687563 0.38553134 -0.017067313 -1.3019427 0.48146918 0.052105784 0.48519343 1.2680984
0.11468427 -0.5949078
00000000: b970 d53e 5d64 c53e c0d0 8bbc 0fa6 a6bf
00000010: 2183 f63e e06c 553d 466b f83e 0c51 a23f
00000020: 96df ea3d e14b 18bf

bias f4 [10]
-0.4169415 -0.8070389 -0.4804541 -0.47331876 -0.28061533 -0.7516136 -0.50198764 -0.25520563
-0.13065979 -0.049305115
00000000: 5b79 d5be 1a9a 4ebf 14fe f5be d656 f2be
00000010: d0ac 8fbe c069 40bf 4382 00bf 50aa 82be
00000020: aecb 05be 29f4 49bd

weight f4 [1, 10]
-0.060321514 -0.1897685 0.26914397 0.83030003 0.3809364 0.26339403 -0.036446333 0.8201232
-0.04330635 0.42190772
00000000: b113 77bd ac52 42be 3dcd 893e 8b8e 543f
00000010: 190a c33e 95db 863e c048 15bd 98f3 513f
00000020: 0062 31bd 4a04 d83e
